reference/dinov3_finetune_ref/output/dinov3/base_voc_lora.pt (torch, 524381 bytes, 50 tensors)

w_a_000 f4 [3, 768]
000000 54 a3 d5 3c 3e 1c fb 3c 72 7c 58 bd bf a9 52 bb
       0.026078857 0.030653115 -0.052853055 -0.0032144634
000010 13 32 95 bc fe 7e 4f bc fa 99 02 bc c9 62 81 bc
       -0.018212354 -0.012664555 -0.007971281 -0.015794175
000020 17 ed 07 3d 3f 53 c1 bc 1c d0 4d 3c e2 bc 98 3d
       0.03318509 -0.023599265 0.012561824 0.074579015
000030 14 6b 18 bd 96 4b d4 bb 70 c8 5d 3d 08 c9 70 3d
       -0.037211493 -0.006478737 0.05414623 0.05878547
000040 44 52 22 bd bf 26 94 bb 94 87 2c 3d 03 4b c9 bc
       -0.039629236 -0.0045212205 0.042121485 -0.024571901
000050 23 af 70 bb d1 d7 1f 3b 75 85 c3 bb 0f 7c d7 3d
       -0.0036725483 0.0024390111 -0.005966837 0.10521709
000060 8f b3 30 3c db 6e 1e bd a2 70 bd 3c d9 f5 fd 3b
       0.010784998 -0.03867994 0.023124997 0.0077502546
000070 27 81 20 bd 6d 96 13 bd 1d a5 3e 3a f5 29 10 3d
       -0.03918567 -0.03603213 0.00072725286 0.035196263
000080 ae 4c 69 bd a2 c8 22 3c c8 2d 2c be ed 6b 09 be
       -0.056957893 0.00993553 -0.16814339 -0.13420077
000090 74 e6 c8 bd 7a a3 03 3d a2 94 f1 bb 95 ec 83 bc
       -0.098095804 0.032138325 -0.0073724547 -0.016104022
0000a0 00 b3 36 3c 4c d2 d9 3c f4 a0 57 3c 41 9d a7 bc
       0.011151075 0.026589535 0.013160933 -0.020460727
0000b0 a8 bc f7 3b e1 02 10 bb 84 45 69 bc 27 e2 39 3c
       0.0075603314 -0.0021974372 -0.014237765 0.011345423
0000c0 f1 c1 16 3d 18 5f 50 3b 71 ef f5 3b 36 68 cb 3c
       0.03680605 0.0031794962 0.0075053503 0.024829965
0000d0 54 57 e8 bc c1 06 eb 3b 31 07 3a 3b 61 62 4d bd
       -0.028361954 0.007172436 0.0028385634 -0.05014265
0000e0 99 4e c6 bc 03 c0 3c bc 47 a4 38 3c 01 28 01 3d
       -0.0242074 -0.011520389 0.0112696355 0.03153229
0000f0 1a fa f0 3b c3 69 f7 3c b8 ce 8d bc 3a ec 71 3c
       0.007354033 0.030201798 -0.017310485 0.014765793
000100 c9 4e 55 3c 44 a5 f2 3d c5 7e 7c 3c b0 9f ba bc
       0.013019272 0.11847928 0.015411084 -0.022781223
000110 53 4f 19 bc b7 ed 04 bd 75 b6 93 b9 94 4a 48 3c
       -0.009357291 -0.032453265 -0.00028173966 0.012224812
000120 4c 34 e1 bb 7d 49 45 bd fb 2b 05 bc 71 51 03 bd
       -0.0068726894 -0.048165787 -0.008128162 -0.03206009
000130 15 c3 86 3b 36 2d e7 bc af 28 69 bc 80 2d 9b 3c
       0.004112611 -0.0282198 -0.014230891 0.018942595
000140 21 eb ed bc 86 e0 35 3d 48 8e 19 3d 23 a3 0d bd
       -0.029042782 0.044403575 0.037489206 -0.034579407
000150 72 14 8d bb 9f 4b 41 bd 3e ff 7b bd 14 e8 47 bc
       -0.004305416 -0.04719126 -0.061522715 -0.012201328
000160 88 4a 8e 3c 11 26 12 3b 8c 46 82 bc fc 45 85 3c
       0.017369524 0.0022300521 -0.01590278 0.016268723
000170 2d db 96 3b 9e f8 24 3d 01 16 9f bc fe ee 21 be
       0.0046037645 0.040276162 -0.019419672 -0.15813825
000180 3e b6 d9 39 3b a9 a5 3c c5 63 8b 3d e9 e7 95 3c
       0.00041525246 0.020222297 0.06806139 0.01829906
000190 57 1a 25 bd 9b 52 21 bc f8 0f 29 3d d0 82 35 bb
       -0.040308323 -0.009846355 0.041274995 -0.0027696379
0001a0 df 52 7f bc 8a 02 cf bc e5 02 1e 3c 5f 2f 8a 3b
       -0.015583723 -0.025269765 0.009644245 0.004217073
0001b0 d5 6c d1 3c d3 49 e7 3c 56 1a 0a bd b1 c1 b4 bc
       0.02556459 0.028233444 -0.033716522 -0.022065016
0001c0 63 e2 54 bd 47 99 a0 bb 73 06 f8 3b 7f 30 e2 bc
       -0.05197371 -0.0049010846 0.007569128 -0.027611015
0001d0 01 2f e5 3c 50 6d cd 3d 63 e2 c2 3c ad a9 11 bd
       0.027976515 0.10030615 0.02378959 -0.035562206
0001e0 f0 34 0a bd bf bb fd bc 89 e1 08 bd 72 34 4c bc
       -0.03374189 -0.030973313 -0.033418212 -0.012463676
0001f0 84 bc 98 bc c3 08 e6 3c 7e 63 4b bb 51 6a b9 3b
       -0.018644579 0.02808035 -0.0031034644 0.005658426
000200 3b ef 88 bc ac 7f f3 3b ec b1 75 3c 30 96 01 bd
       -0.016715636 0.007430991 0.014996033 -0.03163737
000210 a5 01 1c 3d de 5c ba 3c 01 7b 4d 3c 24 f2 de bc
       0.038087506 0.02274936 0.012541533 -0.027215071
000220 be ad 09 bd 75 1a 96 3d 64 91 63 bd c8 32 b0 ba
       -0.03361296 0.07329265 -0.055558577 -0.0013442868
000230 4c 29 85 bd 02 95 7b 3c 0b 8a 91 3c e2 0a 30 bd
       -0.065020174 0.01535535 0.01776602 -0.04297913
000240 ea b6 95 3d 00 cf b2 3c 0a 29 5d bd 70 8f 3f 3d
       0.07310279 0.02182722 -0.053994216 0.046767652
000250 49 61 be 3c 10 bc f5 3c d1 95 cb 3c 6b 23 bc 3c
       0.023239749 0.029996902 0.024851711 0.022966107
000260 25 6b 03 bb 98 df 53 bc 04 ca ba bc d0 bd c1 bc
       -0.0020052877 -0.012931727 -0.022801407 -0.02365008
000270 14 86 f9 3c 01 a4 9f 3c d0 be 02 bd 58 5d 80 bc
       0.030459441 0.019487383 -0.031920254 -0.01566951
000280 e9 88 3f 3e 6e 39 96 3c 6a 51 21 3c cc 97 d0 3c
       0.18704571 0.018337931 0.009846071 0.025463007
000290 7c c9 92 bc 50 d6 ea 3c c7 55 1b 3d 52 6e 8f 3d
       -0.01791834 0.028666645 0.0379236 0.07003464
0002a0 00 29 15 3e 4d 53 74 bb c1 17 46 bd 21 98 e0 bc
       0.14566422 -0.0037281096 -0.048362497 -0.02741629
0002b0 c3 a5 47 bb 9b 3b ef 3c 74 5a b8 bc 00 7d 17 3a
       -0.0030463792 0.029203227 -0.022504069 0.00057788193
0002c0 eb f1 95 bd cf 7e 0e 3c e1 a1 1a b9 7c 06 0f 3d
       -0.07321533 0.008697226 -0.00014746889 0.034918293
0002d0 56 85 1c bd 69 eb f4 bd e2 72 4b 3d f8 07 ba bc
       -0.038213097 -0.119589634 0.049670108 -0.022708878
0002e0 e9 f6 12 bd 78 5d 1a bd 24 71 6b bc c5 71 61 bd
       -0.035880003 -0.037686795 -0.014370237 -0.05504014
0002f0 e6 12 88 3c 07 a3 33 bc f4 78 6a bc 33 4b c9 3c
       0.016610574 -0.010964162 -0.014311064 0.02457199
000300 1a 60 b4 bb a0 ad d6 3d 4f ab 5b 3d 57 39 b0 bd
       -0.0055046203 0.10482335 0.05363017 -0.08604687
000310 cb 15 ec 3c f2 a3 0a 3d 53 e1 97 bc d5 97 95 3c
       0.028818985 0.033847757 -0.01854006 0.018260876
000320 d3 09 73 bc c6 85 10 3b 0f b0 dd 3b cc f6 6d 3d
       -0.014833885 0.0022052391 0.0067653726 0.058096692
000330 ee 2b a5 bc 3b 99 b0 3c ba 24 69 bc 08 01 da 3c
       -0.020162549 0.021557441 -0.014229948 0.02661182
000340 68 42 86 3c 58 8a d9 3c 52 c8 e5 3c 35 3a 37 3d
       0.016389087 0.026555225 0.028049622 0.044733245
000350 1f 7f f8 3b 21 01 81 bc fe f1 94 3b 38 19 54 39
       0.0075835134 -0.015747609 0.0045454493 0.0002022729
000360 f4 df 1c 3c a1 ce 1b 3c e6 16 9f 3c fb dd 7a 3c
       0.009574879 0.009509713 0.019420099 0.015311713
000370 7d 09 50 3d 0b 3a 14 bd e2 ca ee bb 4f 3a f0 3c
       0.0507903 -0.036188167 -0.007287369 0.029324679
000380 d3 4d 5b bd bd 6c 53 3c ca 93 b8 bc 08 99 4b bc
       -0.053541016 0.012904343 -0.022531409 -0.012426622
000390 bd aa 88 3c 8a 55 30 bc 75 67 f0 3c 5d 02 5c bc
       0.016682977 -0.010762582 0.029346207 -0.013428298
0003a0 27 8e d4 3d d5 5f a8 3c 1d 57 8f bd e4 d3 94 bc
       0.10378676 0.020553509 -0.069990374 -0.018167444
0003b0 0e 42 a9 3c 96 09 1a 3c 67 eb 65 bd ba 31 a3 bd
       0.02066138 0.0094016995 -0.0561327 -0.07968469
0003c0 c1 e4 6f bd 9f db 90 bb 4d c4 7b bc 74 3f a9 3d
       -0.058567766 -0.004420712 -0.015366626 0.08264056
0003d0 53 74 2c 3c 1b 4f 2b 3c 71 d0 fd bc 9f 90 fc 3c
       0.010525781 0.010455872 -0.030983182 0.03083068
0003e0 c5 93 03 3c f6 4e 46 3c 66 5e c3 3b 81 6c 44 3c
       0.0080308365 0.012103787 0.005962181 0.01198876
0003f0 42 43 96 bc b6 5c 09 bc e9 f5 96 bc 0d 7b d5 bc
       -0.018342618 -0.00838392 -0.018427806 -0.026059652

w_a_001 f4 [3, 768]
000000 33 ca 58 bc b7 fe c2 3c 1a 5e fb 3d 8a 58 d4 bc
       -0.013231802 0.023803098 0.12273808 -0.025921125
000010 70 7b 1c bd 5f ba 2d bd d0 a9 22 bd 21 a0 8e 3c
       -0.038203657 -0.042414065 -0.039712727 0.01741034
000020 51 38 bd 3c 79 bd cf bc 6b ec 96 bc 35 65 9f bc
       0.023098143 -0.025358902 -0.01842328 -0.019457439
000030 f1 22 c1 bc 2c 3f 10 3d 2e 3b 03 bd 28 d6 9c bc
       -0.023576232 0.035216495 -0.03203886 -0.019145086
000040 dc 96 89 be 1a 4e c4 3b 18 d2 52 3c 9c 2f 14 3b
       -0.2687291 0.0059907557 0.012867473 0.0022611385
000050 44 bf 10 bd 97 52 c2 bc be b3 95 bd 4d 46 23 bd
       -0.035338655 -0.023721023 -0.07309674 -0.039861966
000060 90 f9 c5 3c fa df d1 bc d8 70 bc 3c b4 39 b0 3c
       0.024166852 -0.025619496 0.023003027 0.02151189
000070 80 91 3d bc af a6 14 3d 17 6b f3 3b ba c8 73 bc
       -0.011570334 0.036291774 0.0074285376 -0.0148794
000080 ae d7 d3 3c 90 e5 81 bc 7d 6f c7 3d 4c b4 15 bd
       0.02585968 -0.015856534 0.097380616 -0.036548898
000090 e0 1b 3c bd db 14 f0 bc ff 53 31 bd 99 fa a6 bc
       -0.04592502 -0.02930682 -0.043292996 -0.020383166
0000a0 99 f2 bc bd de 81 d2 3c d2 c3 4d 3d f8 51 17 bd
       -0.09225959 0.025696691 0.050235577 -0.036943406
0000b0 f6 04 bb bb 19 2e 72 bc ee 89 1a 3d db cb 35 bd
       -0.0057073785 -0.014781498 0.037729196 -0.044383865
0000c0 30 43 f3 3c 83 b2 1f 3d 10 50 1a bc 91 7f a5 3c
       0.029695123 0.0389886 -0.009418502 0.02020243
0000d0 3c d0 c1 bc a7 10 ce bc 68 b2 14 ba ba 44 e2 bb
       -0.023658864 -0.025154425 -0.00056723366 -0.0069051655
0000e0 b8 4e 8a 3d 41 84 3e 3c ff 9e 09 bd 43 c6 6d 3c
       0.06753296 0.0116282115 -0.033598896 0.014512601
0000f0 2c f3 06 3d f3 4f 41 3a ce 57 08 bd b4 37 1d bc
       0.03294675 0.0007374279 -0.033286862 -0.0095958
000100 35 37 33 bc ad 0c 00 be c6 ac 02 3d 82 b5 2a 3d
       -0.010938455 -0.12504835 0.03190305 0.041677006
000110 f7 43 b0 bc 9d 09 0e 3d 3c e1 2a bd 94 17 ce 3d
       -0.021516783 0.034677137 -0.041718706 0.10063091
000120 f2 b4 06 bc 89 ba b1 3c 85 0e 91 ba e5 36 6f bd
       -0.008221852 0.021695392 -0.0011066949 -0.05840196
000130 a7 11 22 3d 9c b3 0b bc ed d2 61 bc c5 de cb 3c
       0.039567616 -0.008526709 -0.013783199 0.024886498
000140 f1 e9 51 3c 97 c9 af bb 83 d4 51 bb 82 da c1 3c
       0.012812124 -0.0053646076 -0.0032017536 0.023663763
000150 bd 5a 07 bd ed 01 fe bd 6d dc a2 bb 59 fa 82 bc
       -0.03304552 -0.12402711 -0.0049701245 -0.015988516
000160 17 73 7b 3c 8f 49 80 3b 8b 1d 14 3c 12 66 0e 3d
       0.015347264 0.003915019 0.009040247 0.03476531
000170 ce 99 af 3c d8 b7 1a bd 7e 55 8c bc d5 5c c5 3c
       0.021435644 -0.037772983 -0.01713061 0.024092117
000180 98 c6 f6 3c ab dd 21 bc 90 de b8 bd 19 27 0c 3e
       0.030123994 -0.00987951 -0.090268254 0.1368679
000190 ca 45 90 3b 3c 36 e4 bd bb 39 7c 3a 2a 50 9d 3c
       0.0044028508 -0.11143157 0.00096216396 0.019203264
0001a0 56 66 b6 3c 58 ef 2d bb 14 1b 89 3d dd c8 ab 3c
       0.022265594 -0.0026540365 0.06694618 0.020969803
0001b0 30 12 8f bc 29 01 b0 bc 34 0a 86 be 9d 34 74 3c
       -0.017464727 -0.021484928 -0.2617966 0.014905122
0001c0 49 45 a4 bd cf a6 49 3c 7f 22 06 be 88 e0 9f 3c
       -0.080210276 0.012307837 -0.13099097 0.019516245
0001d0 0c 9d 4b bc 43 1d d1 3c c5 76 9f bc 94 fd 2e 3d
       -0.01242758 0.025526648 -0.019465813 0.0427223
0001e0 51 5e 0e 3b 4c d7 f0 3a da 32 a1 bb 51 9f 8a 3b
       0.0021723697 0.001837471 -0.004919392 0.004230418
0001f0 57 3b 14 3c a9 49 15 3d 4d 63 ec bc 58 f0 2d 3c
       0.009047351 0.0364472 -0.028855944 0.010616384
000200 c0 e9 28 bc ef 20 49 3b dd ee 19 3c 2f e5 18 bc
       -0.010309637 0.0030689796 0.009395328 -0.009331985
000210 4b 0e ac 3a a9 78 2d bc d3 56 90 3c a8 fe a8 3b
       0.0013126818 -0.01058785 0.017619526 0.0051573105
000220 8b 82 13 3b f0 02 0c bb e2 24 90 bc e7 02 70 bc
       0.002250823 -0.0021364056 -0.017595712 -0.0146491295
000230 ed 0a eb 3d 8c 55 60 3c 8b 09 40 bc 98 f8 8b 39
       0.11476693 0.013692271 -0.011721025 0.00026697363
000240 ab 2c a7 3c b6 d1 25 3e 4c 3b fb 3c d3 9d 22 bc
       0.020407042 0.1619328 0.030667923 -0.009925324
000250 2f f2 8e bc f6 9a f1 bc e2 00 3d bb bb 0c f8 ba
       -0.017449467 -0.029492836 -0.0028839638 -0.0018924692
000260 d1 74 60 3b 7e 57 bd bc 34 27 ec 3b 48 51 81 bb
       0.0034249316 -0.023113009 0.007206822 -0.003946457
000270 30 b9 04 bd 28 43 d3 bc 01 a3 0c bd 62 e6 f2 3c
       -0.03240317 -0.025788859 -0.03433514 0.02965087
000280 1e 5d bd 3d c1 32 01 bc 10 04 67 bd 41 3b 2f 3b
       0.09246276 -0.007885636 -0.05640036 0.00267382
000290 bb d1 18 3a 40 bb 9c 3b e2 37 0b bc 5e ae e2 3c
       0.0005829592 0.004783064 -0.00849721 0.027671035
0002a0 8f 95 90 3c 55 81 82 bc 49 87 8c bb 1e 19 ef bb
       0.01764944 -0.015930811 -0.004288588 -0.0072966954
0002b0 f9 60 07 3d 24 25 38 bd ca ec 4d bc 36 94 63 3d
       0.033051465 -0.044957295 -0.012568662 0.055561267
0002c0 32 94 26 3e ba 15 9b 3c de e3 bb bc da b5 c6 bc
       0.1626747 0.018931258 -0.022935804 -0.024256635
0002d0 39 39 53 3c f9 85 c7 bc 11 c0 d6 bd 8e d5 4e bc
       0.012892061 -0.024355875 -0.104858525 -0.012624158
0002e0 64 6c 47 3c a9 ea b9 3c 16 a8 15 3d 08 b0 99 bc
       0.012171838 0.022694902 0.036537252 -0.018760696
0002f0 54 5e 36 bd 1f b2 cf 3d 06 ff 4e bc 43 bb e0 39
       -0.044523552 0.10141396 -0.0126340445 0.0004286413
000300 ac bc 17 3e 47 95 c0 3d 7e 2f d6 3c 6c d9 81 bc
       0.14818066 0.094034724 0.026145693 -0.015850745
000310 c8 08 52 3c a2 d8 05 3a 41 e6 30 bd 48 26 ad bc
       0.012819476 0.0005105828 -0.043188337 -0.021136418
000320 bb 96 0a 3c 0c e2 3b 3d 2b 92 c7 bc c0 5f 8d 3a
       0.0084587885 0.045869872 -0.02436169 0.0010785982
000330 1b 77 71 bc 93 a0 81 bd b7 90 9b 3b af 7f 86 bc
       -0.01473787 -0.06329455 0.004747476 -0.016418306
000340 ee a4 4f bb 52 52 82 bc 0a cb 99 bc f9 90 bc 3d
       -0.0031684 -0.015908394 -0.018773574 0.09207339
000350 8d 3c 06 bb 75 2e f8 bc 06 c8 6a bc 7e 68 2c be
       -0.0020482868 -0.03029559 -0.014329916 -0.16836736
000360 04 b2 ed bc 9e bd 22 bc db 1c 6b bc 76 e9 16 3b
       -0.029015549 -0.009932904 -0.014350141 0.0023027337
000370 c9 bc 27 3e 2c ad b5 3c 58 6e a2 ba e1 3b f2 bc
       0.1638061 0.022177301 -0.0012392504 -0.029569568
000380 92 0a a9 bc c8 86 9b bc 59 44 8c bc 4c e2 86 bd
       -0.020634923 -0.018985167 -0.017122434 -0.065861315
000390 a0 34 b4 bb e3 f4 05 be 73 0f 98 bd 42 89 70 3c
       -0.0054994375 -0.13081698 -0.07424822 0.014681162
0003a0 5a fc 46 3b d9 4a ac 3c df 80 c5 bd 03 3a 48 3c
       0.0030362816 0.021031784 -0.09643721 0.012220862
0003b0 ae a8 34 bc fd 4f 68 3c 66 ea 8b bd ab cc 81 3d
       -0.0110265445 0.014179227 -0.06831817 0.063378654
0003c0 0e 52 1b 3d 83 85 7c bc 4c 06 d4 bc da 95 06 bc
       0.03792005 -0.015412691 -0.025881909 -0.008214438
0003d0 41 49 07 3d b9 b9 b1 3c 9c 3a 1a bc e5 bc 2d bd
       0.033028845 0.021695005 -0.009413388 -0.042416472
0003e0 fd 8f 0c 3d 37 fe 3e bc 19 70 30 3c 2e 77 1a 3b
       0.034317005 -0.011657289 0.010768914 0.0023569572
0003f0 d7 3e 17 3d 65 19 ae 3c 5e 44 88 bb 49 d7 34 3d
       0.036925163 0.021252343 -0.0041585406 0.044150624

w_a_002 f4 [3, 768]
000000 d1 6b 89 be 7f 92 2a 3d ab 66 72 bd d3 fb 0b 3e
       -0.2684007 0.041643616 -0.059179943 0.13670282
000010 7e 6a d1 3b 94 a3 ce bd a3 08 91 3d 6e d9 e6 bd
       0.0063908687 -0.10089794 0.070817254 -0.1127194
000020 25 15 2c bd fe 5b 91 be 3f 79 6c 3d 35 e1 22 3e
       -0.042012352 -0.28390497 0.057732817 0.15906222
000030 86 84 a8 3d 22 14 ca 3c f3 2c fa 3d 05 bb 0e 3e
       0.08228402 0.024667803 0.12215605 0.1393853
000040 2e 5f 09 be 41 c6 b3 bd 8d b1 26 bb 7b e8 15 3e
       -0.13415214 -0.08778048 -0.0025435418 0.14639466
000050 d3 33 a9 3c a5 90 14 bd 29 70 9c 3d f6 3d 80 3d
       0.020654595 -0.036270756 0.0763858 0.06261818
000060 4b ae 12 be b3 83 a1 bd ec c8 5a 3d 2d 84 87 be
       -0.143243 -0.07886448 0.05341427 -0.2646803
000070 8d f3 09 3e 00 87 13 3c 05 76 10 be 7d 65 0d bd
       0.13471813 0.0090043545 -0.14107521 -0.034520615
000080 d2 38 18 be 9a c3 da 3d bd 25 95 3c cf ec a9 3c
       -0.14865425 0.10681839 0.018206472 0.020742802
000090 c2 db 01 3e 28 e1 a5 3d d7 3c aa bc ea 22 ae 3b
       0.12681487 0.08099586 -0.020780964 0.0053142207
0000a0 4e 94 13 3e 98 8f 78 bc 0c a2 03 3c 7d c0 89 be
       0.14412042 -0.015170954 0.00803424 -0.2690467
0000b0 65 17 ee bb b2 1f fe 3c 30 4b 51 be e3 92 bf 3d
       -0.0072659724 0.031020973 -0.20438838 0.09354188
0000c0 cd c4 a3 3d 31 b3 1f bd 90 81 98 3d 4a 97 c5 bc
       0.07996521 -0.03898925 0.07446587 -0.024119992
0000d0 61 b4 c2 bd 2f 9c c1 3d 0b b1 e9 3d 7e bc 0e 3e
       -0.09507061 0.09453618 0.114107214 0.13939092
0000e0 6c 43 27 be f8 24 32 3d 50 24 77 bd 65 c2 51 bd
       -0.16334313 0.043492287 -0.060337365 -0.05121078
0000f0 e3 8e 01 bd 0c e0 22 be 53 03 02 3a 0a 9d 37 3d
       -0.031630408 -0.1590578 0.0004959602 0.0448275
000100 b2 aa 6c 3c 61 0b 74 3c b2 1a 2c be 89 76 97 bd
       0.014444994 0.014895291 -0.16807058 -0.07395656
000110 e5 cc 85 3d d5 3e a3 bd 7d 57 52 3e d9 2b 95 bd
       0.06533221 -0.07970969 0.20541187 -0.07283754
000120 d2 90 92 39 7e 5a 51 3e 1c 0a e0 3c 51 1a 44 bd
       0.0002795519 0.20444676 0.02734857 -0.04787666
000130 49 79 b7 bd d8 8a 09 be 01 b9 95 3d b8 55 7e 3d
       -0.0895868 -0.13431871 0.07310677 0.062093467
000140 a4 e3 18 3d 7c 8a 0e 3c 66 f2 1e bb 37 57 d1 bd
       0.03732647 0.008700009 -0.0024253367 -0.10221713
000150 0d 66 a3 bd 56 76 50 3d ac e7 20 be 0a aa 44 3d
       -0.07978449 0.050894104 -0.15713376 0.048013724
000160 2c d4 74 bc ab be f7 3c a2 1a 83 bd 7e 82 00 3e
       -0.014943164 0.030242285 -0.06401564 0.12549779
000170 42 4b 2b 3e f9 d3 de 3d 6e ff bf 3d 96 d2 d2 bc
       0.16727927 0.10880274 0.09374891 -0.02573518
000180 19 1e 0b 3e 94 25 7b bd 3a 24 bb 3d 1f 87 a7 bc
       0.135857 -0.061315134 0.09137769 -0.020450173
000190 f5 02 f6 bd 33 7c dc bc 86 2c 83 bc 62 3a 0f 3d
       -0.12012283 -0.026914692 -0.016012441 0.034967788
0001a0 d2 f3 aa bd b3 c4 67 3c b5 59 4a 3e 8d e6 92 bd
       -0.08347286 0.014146018 0.19760783 -0.0717288
0001b0 95 12 1d bc 91 50 0f bc 90 3d 9d bd 8c 38 a0 bd
       -0.00958695 -0.008747236 -0.07677758 -0.078232855
0001c0 ab 92 b9 3d 85 75 97 bd 93 47 ce 3c cc a9 7b bd
       0.09061178 -0.07395462 0.025180614 -0.061441228
0001d0 90 9a 4e 3d 99 b3 36 3d 75 f0 7b be 71 09 c6 3c
       0.05044037 0.04460487 -0.24603446 0.024174424
0001e0 60 20 23 bc bf 2f b9 bd 75 43 13 be 0e 5d 7d bd
       -0.009956449 -0.0904231 -0.14381202 -0.061856322
0001f0 da 27 50 ba 70 85 d9 3d 0d bc 99 3d 84 2b c0 be
       -0.00079405087 0.10621154 0.07506571 -0.375332
000200 cb 89 2b 3d 5e 11 60 3c bf 2b 40 3c 42 c6 e9 3d
       0.041879456 0.013676016 0.01172918 0.11414768
000210 48 79 e6 bd 54 f0 5d 3e 37 18 10 3c 14 1c 01 be
       -0.11253601 0.21673709 0.008794836 -0.12608367
000220 22 21 cf bd 70 23 7d 3c 99 d5 c7 bd f7 0d 32 be
       -0.101137415 0.0154503435 -0.097575374 -0.1738814
000230 73 8c 3d bd 5c b2 c6 bc d5 05 ed bc 65 78 fe 3d
       -0.04627652 -0.02425497 -0.028933445 0.12425307
000240 2f cf 16 be ee 38 60 bc 76 72 73 bd 57 53 6d 3d
       -0.14727472 -0.013685448 -0.05943533 0.057940807
000250 7d 70 d5 3d c0 f8 ac bd 34 d2 66 be d8 96 9b bd
       0.10421846 -0.08445883 -0.22541124 -0.075971305
000260 56 39 2c bd 78 38 0a be 53 2a 2d bd 69 fb fc bc
       -0.042046867 -0.13498104 -0.04227669 -0.0308816
000270 dd b0 08 be ce 63 f6 bd d8 34 81 bd fa 8c ff 3b
       -0.13348718 -0.12030755 -0.06308907 0.007798788
000280 db bd 0d 3e 30 ec b5 3e a3 9f 8c 3c f4 77 92 3c
       0.13841955 0.3553176 0.017165964 0.017879464
000290 c8 a9 b6 bd 80 06 23 3d 18 09 31 3d 0d a6 db bd
       -0.08919102 0.03980112 0.043221563 -0.10725031
0002a0 df ac 74 bd f8 19 9b 3d 6a 4a b7 bd 78 ce 10 3e
       -0.059735175 0.075733125 -0.0894974 0.14141262
0002b0 f7 f8 fd bd 7b 95 74 3e cc 1a 00 bc 12 83 47 3b
       -0.12401002 0.23885147 -0.007818889 0.0030443114
0002c0 b8 d7 21 3e 86 a0 22 3d 37 13 35 be 3b 57 05 be
       0.15804946 0.03970387 -0.17683111 -0.13021557
0002d0 38 00 8a bd ee 89 8e 3d c0 d5 bc 3d c0 e3 09 be
       -0.06738323 0.06959902 0.09220457 -0.13465786
0002e0 19 b2 ff 3c d1 83 65 3c d3 b6 d3 3c a9 c8 99 3d
       0.031212853 0.014008478 0.025844013 0.07508976
0002f0 95 2b 3c 3d 53 a7 ca 3b fc fb 63 3c 83 c5 01 3e
       0.04594 0.0061844974 0.013915058 0.12673001
000300 c8 e3 0d 3d 21 ba 26 be 17 18 96 be 03 50 6e b9
       0.034641057 -0.1628194 -0.29315254 -0.00022727255
000310 08 db 4c be 1a 9c f4 bb 18 43 92 3c f9 d6 50 3e
       -0.20005429 -0.007464898 0.017854258 0.20394506
000320 e0 81 01 be 65 97 f2 bd 8a 86 1d 3b 2f 65 91 be
       -0.126472 -0.118452825 0.002403649 -0.2839751
000330 fe de 26 3d 97 68 d9 bc 49 fc f3 3c 65 81 57 3d
       0.040740006 -0.02653913 0.029783385 0.052613635
000340 87 01 d2 3c df 13 ab 3b 15 f8 a2 3c 46 99 aa bd
       0.025635494 0.0052208747 0.019893685 -0.08330016
000350 2b 56 4d bc e4 08 e3 3d 5a f2 8c 3c 35 be 77 3d
       -0.012532751 0.1108568 0.017205406 0.06048413
000360 68 9e 0a 3d a4 ee 8b bd 17 0a 14 3e 19 fc 04 3e
       0.033842474 -0.068326265 0.14456974 0.12986793
000370 07 32 0b be df a4 dc 3d 92 c1 24 be 35 68 45 be
       -0.13593303 0.10773634 -0.16089466 -0.19278033
000380 77 90 81 bc de 49 1d bd a4 db 15 bc 8e 13 50 3e
       -0.015815957 -0.038400523 -0.009146605 0.2031996
000390 6d 75 34 3d b6 d0 1c 3d 7e 8b fe bd fa 4b b4 3d
       0.0440573 0.03828498 -0.1242895 0.08803554
0003a0 65 a9 96 bd 07 ed cd 3d 4c f2 64 bd 4d e8 06 3e
       -0.07356528 0.10054975 -0.055895135 0.13174553
0003b0 d4 f9 b8 ba 60 0b 90 3c 09 68 f5 3d eb 53 30 bd
       -0.001411254 0.017583549 0.11982734 -0.04304878
0003c0 54 8b 93 bd a9 0b 94 3d 38 45 3e be 5e 08 d6 bd
       -0.07204309 0.072287865 -0.18581092 -0.10450815
0003d0 dd c2 89 3e e1 a3 f6 bd 84 03 55 3c 7c 99 86 3d
       0.2690648 -0.12042976 0.0130013265 0.065722436
0003e0 ce e6 90 3e 50 be 98 3d 77 73 72 bc d7 30 f0 bd
       0.2830109 0.07458174 -0.014798037 -0.117280655
0003f0 2e 5e 8f bd f4 b4 7a 3d 9c b7 e1 bd 6b 6d be 3d
       -0.07000385 0.061207727 -0.11021349 0.092982136

w_a_003 f4 [3, 768]
000000 2c fc df 3a 8f 6e fd 3d 57 f5 21 bc 04 11 b2 3d
       0.0017088703 0.12374603 -0.009885154 0.08694652
000010 e5 f8 94 3c 71 05 d1 bc 0f 3a 1f bc a0 88 74 3c
       0.018185088 -0.02551529 -0.009718432 0.014925152
000020 a6 7e 19 bc c3 fe 6a 3d 7b a0 29 bd 5d d5 39 3b
       -0.009368574 0.057371866 -0.04141281 0.0028355934
000030 1e 44 8f bd d7 0b e0 3d ef 8b c7 ba 0f 68 de bc
       -0.06995414 0.10939758 -0.0015224199 -0.027149228
000040 24 aa 21 bd f9 75 e9 bc c1 f0 b5 3d 9b 67 9c bd
       -0.0394689 -0.028498637 0.08883811 -0.07636949
000050 c3 df 01 3c 51 0e 99 bd cd 0f 30 3e e4 48 fa 3d
       0.007926884 -0.07473434 0.17193528 0.12220934
000060 ab e6 4d 3e 21 4e 18 bc 61 06 30 3d bf c5 7e bc
       0.20107524 -0.009295971 0.042974833 -0.015550076
000070 45 2c 2a be 2b 2c 81 bd e0 27 cd 3d bc e3 88 3d
       -0.1661845 -0.063072525 0.10017371 0.06684062
000080 a9 95 cb bb 32 90 00 be 1b 4a 1e bd 9c ae f2 3d
       -0.0062129092 -0.12555006 -0.03864489 0.1184971
000090 fb 14 d5 3c be 88 6e 3c 29 8e 17 bd 2b 00 89 3d
       0.02601098 0.014558969 -0.03700081 0.06689485
0000a0 be 91 39 3d 70 a4 11 3d 41 a8 82 bd 71 68 ad 3b
       0.045305006 0.03555721 -0.06379748 0.0052919914
0000b0 f2 4f 5c bc b1 d3 64 be 96 8b b8 3c d5 7e 29 3d
       -0.013446795 -0.22346379 0.022527497 0.041380722
0000c0 3e b7 a0 bb 9b 06 8b bd 61 b7 4d 3d be 2a 61 3d
       -0.0049046567 -0.06788369 0.050223712 0.054972403
0000d0 93 1d 1f 3c 21 2d 6e 3c 55 71 2f bd ed 41 f8 bc
       0.009711641 0.014537127 -0.04283269 -0.030304873
0000e0 73 e7 ee bc 01 c6 b1 bd c7 6d 85 bd d4 35 3d 3d
       -0.029163098 -0.086803444 -0.06515079 0.046193913
0000f0 63 de 47 bc 44 65 5b bd 14 e0 8b 3d 39 44 e0 bb
       -0.012199017 -0.05356337 0.06829849 -0.0068440703
000100 8b 20 bf 3d a4 35 28 3c 9f e2 7d bc fd 58 78 bc
       0.09332379 0.010266695 -0.015495925 -0.015157935
000110 7b a0 60 3d 5c 9e 90 3c 79 c2 70 bd f1 5a 0c 3d
       0.054840546 0.017653637 -0.058779214 0.034266416
000120 6c 15 6f 3d 5d 6d 85 bd 07 8c 02 3d d3 6c 16 bd
       0.05837004 -0.06515 0.03187182 -0.036724877
000130 36 5f 97 3d 93 c1 76 3d 6a 26 92 bd 90 cb c6 bc
       0.07391207 0.0602432 -0.07136233 -0.024266988
000140 9e 45 a2 3c 62 ef a9 3d 93 9f 11 3e 06 08 ea 3c
       0.019808587 0.08297612 0.14221029 0.028568279
000150 32 4b ad 3d 5e e6 00 bd 03 6d a5 bd 20 84 bf bb
       0.08461608 -0.031469695 -0.08077433 -0.005844608
000160 6a 67 25 3d 56 4e a6 3b 8a 15 a3 3d 6a 51 8a bc
       0.040381826 0.0050752563 0.079630926 -0.016884524
000170 ca 46 95 bb 39 76 c7 bc a3 b5 5b 3d 8e d2 1a 3d
       -0.004555558 -0.024348365 0.05364002 0.037798457
000180 06 85 76 3d 97 6f 30 bc b0 01 a8 3d a8 02 9b bc
       0.060185455 -0.010768793 0.08203447 -0.018922165
000190 28 74 22 3d d9 b3 27 3a 66 16 29 3c 0d 1f 1c 3d
       0.039661556 0.0006397344 0.010320282 0.03811555
0001a0 d2 d5 08 bd 05 49 07 bc 24 5f 87 bc 88 31 a7 3c
       -0.03340704 -0.008257155 -0.016524859 0.02040936
0001b0 d3 55 d9 3d 20 3c 3e bc 64 e0 e3 3b 15 18 0c be
       0.10612073 -0.011611015 0.0069542397 -0.13681062
0001c0 2d fe e4 bc fb d2 be 39 70 71 2f 3c 07 29 85 bd
       -0.027953232 0.00036396817 0.010708198 -0.06501966
0001d0 71 e2 5b 3d 8d 6a 49 3d 42 20 b3 bd a1 5b 1c 3d
       0.05368275 0.04917388 -0.08746387 0.03817332
0001e0 dc 58 f1 3d e7 d9 11 3d 39 96 1e bc 0e a4 a5 bd
       0.11784527 0.0356082 -0.009679371 -0.080879316
0001f0 ba d3 38 bc 30 88 1d bd 5e c2 aa 3d d2 38 7c bd
       -0.011280948 -0.038459957 0.08337854 -0.061577626
000200 0d b2 37 bd 38 46 d2 3d d3 79 0d 3d 8b 79 b8 3c
       -0.044847537 0.102672994 0.03454001 0.022518894
000210 91 fb 32 bd af f6 68 3d 9b 09 25 bd 0d 98 aa 3d
       -0.043696944 0.05687588 -0.040292364 0.08329783
000220 df c3 3a 3c 1b 4e 19 bd f4 74 2a 3c 42 79 97 3d
       0.011399238 -0.037428003 0.01040386 0.07396175
000230 44 54 26 3d 93 32 8b bc 24 d3 c5 3d 39 91 4a 3a
       0.040607706 -0.01699189 0.096594125 0.00077273283
000240 c5 f9 d2 3d c4 65 74 3b 6d dd b8 3c db 4c c4 bc
       0.10301546 0.0037292102 0.022566522 -0.023962429
000250 42 61 61 3d af c7 ec 39 e6 2a 93 bc d7 d4 1a 3d
       0.055024393 0.00045162204 -0.017964792 0.037800636
000260 ad fa 2b 3d 2e 17 f8 bd 27 b1 1d 3c fc 51 4d bd
       0.04198711 -0.12113796 0.009624756 -0.050127015
000270 75 0e 4b bd c7 35 82 bb 94 76 a4 bc 89 09 cb bc
       -0.049574334 -0.003973696 -0.020076074 -0.02478482
000280 1d be 28 bd 9d d7 a0 3d 9f ac d0 3c 14 12 b9 3c
       -0.04119693 0.07853625 0.025472937 0.022591628
000290 52 a1 e4 bb b0 a9 9a bc 65 68 f5 bd 5e 43 26 3d
       -0.0069772387 -0.018879741 -0.11982802 0.04059159
0002a0 f5 09 02 bc e5 15 1c 3c 0d bb 81 3d a8 8a 21 3d
       -0.007936944 0.009526704 0.06334505 0.039438874
0002b0 b7 bc 8c 3d 57 39 c3 bd 9d 23 64 3d 6d ac 6d 3d
       0.06871932 -0.09532421 0.055698026 0.058025766
0002c0 ea 25 6a 3d 15 5c 1c bc 75 54 16 3c 8d 0e c7 bb
       0.057165064 -0.009543438 0.00917541 -0.0060747326
0002d0 96 4c 9e 3c 23 f8 58 3d 09 bc 4c bc 64 1e 85 3c
       0.019323628 0.052971017 -0.012496003 0.016249843
0002e0 e8 2a e3 3d a1 90 29 bd a6 6c a8 3d 00 7f be bd
       0.11092168 -0.041397694 0.08223848 -0.09301567
0002f0 39 dc 95 bb 77 85 91 bd d5 85 90 bd 46 02 b5 3b
       -0.0045733717 -0.071055345 -0.070567764 0.0055239527
000300 c0 bd 20 3e cf 07 0f 3c 43 23 08 3d 33 e3 23 3e
       0.15697384 0.008729889 0.033236753 0.16004638
000310 db 57 00 3c 2e 88 9e 3d 1a 2f 03 3d 9e a3 4e 3d
       0.007833446 0.07740818 0.03202734 0.050449006
000320 fd 1c a4 bc b9 72 cc 3c 22 17 cc 3c 2f 36 a0 3c
       -0.020033354 0.024957048 0.024913374 0.019557087
000330 dc 0c 01 bd 04 56 5a 3b 4d 32 8e 3d a9 a1 3e bd
       -0.031506404 0.003331543 0.06943188 -0.04654089
000340 d1 a4 26 3d d7 66 81 bd 62 21 11 bc 34 e9 9e bd
       0.040684525 -0.06318443 -0.008858057 -0.07759324
000350 9e 19 ce bb 39 cc 1c 3d 60 9e 02 be 22 91 4b 3c
       -0.006289675 0.0382807 -0.12755728 0.012424739
000360 c1 bd f4 3c ee 46 02 3b ec 70 39 bd b0 f4 6e 3c
       0.029875638 0.0019878703 -0.045273706 0.014584705
000370 87 e8 c5 3d bc 26 8e bd 74 6a 04 bd be 7b 33 bd
       0.09663492 -0.06940982 -0.032328084 -0.04381918
000380 7a 07 af 3d 4f a2 8e 3d 27 a9 9d bc a7 d8 ec bc
       0.08546348 0.06964552 -0.019245697 -0.028911902
000390 6b af 34 bc 75 c8 ff 3c b4 75 eb 3c 33 f4 72 3c
       -0.011028151 0.031223515 0.028742649 0.014828729
0003a0 44 4a e0 3d 98 38 be bd af c5 46 3d 54 aa 50 bd
       0.10951665 -0.09288138 0.04852837 -0.050943688
0003b0 91 b3 13 3d d9 47 a1 3b 35 9f a7 3c 03 39 84 3d
       0.03605992 0.004921895 0.020461658 0.064561866
0003c0 92 4c 86 3d c2 bc d8 bc d6 93 c8 3c b1 d0 d1 bc
       0.065575734 -0.026457194 0.024484556 -0.025612207
0003d0 97 95 e5 bb ba d4 03 3d a5 32 fa bc 0d 3c 8a bc
       -0.007006358 0.032185294 -0.030541727 -0.016874338
0003e0 06 58 f9 3c 00 26 8d bd b1 c3 28 3d a3 ce 77 ba
       0.03043748 -0.068920135 0.04120225 -0.00094530935
0003f0 ea 01 73 bd 8d 55 38 bd d0 3a d1 bc 0a 98 10 3e
       -0.059327997 -0.045003463 -0.02554074 0.14120498

w_a_004 f4 [3, 768]
000000 94 64 0c be 9d 6c d0 3c ba 70 c5 bc a6 d8 15 bc
       -0.13710243 0.025442416 -0.024101604 -0.009145891
000010 bb b7 2d 3e 76 b2 e8 bd 95 be cb 3c 4e dd 28 ba
       0.16964619 -0.11362164 0.02487115 -0.00064416684
000020 72 bc d2 3e bc 73 8f bd 82 70 74 3e d2 18 d8 bc
       0.41159397 -0.070044965 0.23871043 -0.026379023
000030 ea 41 a1 bd 76 85 fd bd f7 5f 1d 3e 07 9c 44 3e
       -0.078739 -0.12378971 0.15368639 0.19200145
000040 17 59 06 be f3 d1 8f 3c 9e 45 6a bd 1c 4c b7 3d
       -0.13119923 0.017556166 -0.0571953 0.089500636
000050 84 b1 d7 bd 0d 1f 1f 3e b7 10 c1 3d 79 14 f3 3d
       -0.10531905 0.15539189 0.09427016 0.11869139
000060 36 bf 7b 3e c4 70 96 3d 7a 4e a8 be d2 3d 9d bd
       0.2458466 0.07345727 -0.32872373 -0.07677807
000070 e6 69 73 bd e8 9b 3b be 99 b5 1f be ff 75 ee bd
       -0.059427164 -0.18321192 -0.15596618 -0.116436
000080 21 de 9a be a6 ac 45 be 33 37 61 3e 04 92 40 3e
       -0.30247596 -0.19304141 0.21993713 0.188057
000090 64 42 8d be 89 a8 d2 bd 7c 28 47 be fc 69 2c bc
       -0.27589715 -0.10286052 -0.19449037 -0.0105233155
0000a0 a8 74 6a be e6 8c e9 3d 2d ae 11 3d f6 5b 00 3e
       -0.22896063 0.11403827 0.035566498 0.1253508
0000b0 7d ed f7 3d f8 13 d5 3b 2f 9f e8 bd 2c d1 a7 bc
       0.12105844 0.0065026246 -0.11358487 -0.020485483
0000c0 0f 80 62 be fa 5b 80 3e d4 96 90 3d 7b ce 85 3e
       -0.22119163 0.25070173 0.07060018 0.26134095
0000d0 1c 1c b2 bd 60 dc 8d 3c cb a1 c4 3c 72 6d 3a 3e
       -0.08696768 0.017316997 0.02400293 0.18205813
0000e0 46 d4 33 3e b7 f4 99 39 d0 62 17 be fe d4 8b 3e
       0.17561445 0.0002936476 -0.14783788 0.27310938
0000f0 c7 88 1c 3d d3 72 4d 3e c5 b7 49 3e 33 99 9a bd
       0.03821638 0.20063333 0.19699009 -0.07548752
000100 72 ef 01 bd 70 1c 24 bf 02 99 71 be 15 44 20 be
       -0.031722493 -0.6410589 -0.23593524 -0.15650971
000110 2d df 2a be de 81 29 bd 09 0d 9e 3d ae bc ce be
       -0.16686697 -0.041383617 0.0771733 -0.40378326
000120 da 39 35 3e db 8d 7e 3d 11 14 81 3d 51 9d 1f 3d
       0.1769785 0.062147003 0.063026555 0.038968388
000130 c6 81 17 bd 10 2b 74 3d b3 92 c1 3d ac 45 9a bd
       -0.036988996 0.05961138 0.09451809 -0.0753282
000140 cc 1c 89 3c 5f b2 2c 3e 6b 11 89 be 66 6a 1c be
       0.016737364 0.16864918 -0.267711 -0.15274963
000150 b9 92 83 be 63 9c a3 bc bd e9 32 be b0 47 45 be
       -0.25697878 -0.019972032 -0.17471977 -0.19265628
000160 fc 81 64 bd 07 ce 0e be bd aa 46 bd e0 cf 24 be
       -0.055788025 -0.1394578 -0.048502672 -0.16094923
000170 11 ca 36 bc 6e 5f dd bc bc 05 12 3e ab 87 99 3e
       -0.011156575 -0.027023043 0.1426 0.2998632
000180 48 8b 9a bc 11 26 9b 3d 28 c1 a6 be 3d 2c e1 3d
       -0.018865243 0.0757562 -0.32569242 0.10994766
000190 a1 5f 81 bd e3 58 d7 bc 29 38 89 3d e8 03 40 be
       -0.06317068 -0.026287502 0.06700165 -0.1875149
0001a0 96 63 90 3e 21 4e 5d bd a5 7d 8e bd 4e 82 b5 3e
       0.28200978 -0.054029588 -0.069575585 0.35450977
0001b0 f7 1f 8b 3d 74 86 a7 3d 6b 1c 1e 3e 23 47 2e be
       0.06793206 0.08179942 0.15440528 -0.17019324
0001c0 d6 1b 38 3e f1 a3 47 bd fc e7 5d be 5a 5a 73 bd
       0.17979369 -0.04874033 -0.21670526 -0.059412338
0001d0 10 d0 06 3d 42 8a 5c bd 19 25 01 3e c5 7d 7b be
       0.032913268 -0.05384279 0.12611808 -0.24559696
0001e0 9b 9e 6a bd fe 99 0c 3c 94 5a 00 3e 7f 01 84 bd
       -0.057280164 0.0085816365 0.12534553 -0.06445598
0001f0 45 5d d6 3c 2a 74 82 3e 03 1b 58 bd 7b f6 08 3e
       0.026167521 0.2547925 -0.052760135 0.13375275
000200 83 f5 03 3e d0 29 d0 bb 69 b5 92 bd e1 66 98 3d
       0.12886624 -0.0063526407 -0.071635075 0.074414976
000210 0d 1e d5 bd d1 e4 a6 bd f6 59 65 bd af b9 90 3d
       -0.10406122 -0.08149112 -0.055993997 0.07066666
000220 c6 72 ce bd 7c 7c 84 be be a4 01 3e 03 12 d2 bd
       -0.10080485 -0.25876224 0.126605 -0.10257342
000230 dd ea b7 be 29 56 da 3d b4 bb 9f 3e 0e b8 6e 3e
       -0.35921374 0.10660965 0.31197894 0.23312399
000240 32 d3 f8 3d 4e e5 03 be fe 4c a6 bd c6 8f 8e 3c
       0.12149657 -0.12880442 -0.08120154 0.01740254
000250 2f 45 0b be 48 31 d5 bd a3 43 50 3d 7d da 55 3d
       -0.1360061 -0.1040979 0.050845753 0.05221032
000260 28 d9 ff 3d 6a 7e 11 bf 1a b2 09 3e d0 e9 f0 3c
       0.12492591 -0.5683352 0.13446847 0.029408365
000270 19 c8 d6 bd 2b 73 e6 bd fd 89 2e 3c 30 5c 05 bf
       -0.10487384 -0.11252435 0.010653016 -0.5209379
000280 47 3f ec bd b9 91 2c 3d 07 8f ea 3e 8a 98 70 bd
       -0.11535507 0.04213116 0.45812246 -0.058739223
000290 88 d9 71 3e c7 d8 a4 bc 39 f8 19 3e af 6a 07 3c
       0.23618138 -0.020122899 0.15036096 0.008265181
0002a0 2f cd 10 be e1 30 94 bd a8 dc 69 3c ab da d0 3e
       -0.14140771 -0.072358854 0.0142738 0.4079183
0002b0 e2 f6 7f bd 8d c9 9c 3d dc 8c d6 3d a4 d3 27 bb
       -0.062491305 0.0765563 0.104760855 -0.0025608325
0002c0 05 e2 fc bd 1a a8 57 be 2e 16 41 3d d7 d3 09 bb
       -0.12347797 -0.2106022 0.047140293 -0.0021030807
0002d0 28 06 0d 3d 45 c4 7a be fc 3a bb 3d df c4 dc bd
       0.0344297 -0.24488933 0.0914211 -0.10779738
0002e0 86 3e 81 3d e6 28 3c be a2 f5 82 3d 2d 71 70 3d
       0.063107535 -0.18374977 0.06394507 0.058701683
0002f0 52 36 80 3e 86 0d 59 3c 67 22 11 bd ba d0 12 bd
       0.25041443 0.013247853 -0.0354332 -0.03584359
000300 8c 62 ad 3e dd 70 50 bd 4a 55 39 3c 67 68 86 be
       0.33864248 -0.050888885 0.011311838 -0.26251528
000310 aa 09 0a be c6 bd 28 bd 9d 6a 38 bd f9 8c 05 bd
       -0.13480249 -0.041196607 -0.04502355 -0.032605145
000320 1b 07 5b bd 04 e7 1c be bc 6b 4a be 64 c3 a0 3e
       -0.053473573 -0.153225 -0.1976766 0.3139907
000330 5a 49 ae bd 03 ea b2 39 fb 53 4c 3b 27 bb 49 3d
       -0.085100845 0.00034125158 0.0031177986 0.049250748
000340 bc 97 11 3c 86 ab 0a 3e bd c9 aa 3b ce 2d 89 3c
       0.008886274 0.13541993 0.0052120374 0.016745474
000350 26 fc 0b bd 5d 0d 5b 3d 72 76 fe bd aa cb 61 bc
       -0.034176014 0.05347954 -0.124249354 -0.013781467
000360 6d e5 23 3e 86 40 28 bd a2 91 a2 bd ac a5 1d bc
       0.16005488 -0.04107716 -0.079379335 -0.009622019
000370 55 c8 d4 3d a1 0c 97 bd 0c 74 48 3e db d7 48 be
       0.10389773 -0.07375456 0.19575518 -0.19613592
000380 89 7f 23 3e 9a b9 23 3e 5b 7c fd 3c 3f 2f 86 3e
       0.1596662 0.1598877 0.030943086 0.2620792
000390 a9 4c f4 3d b5 34 51 be 32 69 35 3e 0c 09 be bd
       0.11928684 -0.20430262 0.1771591 -0.09279069
0003a0 72 50 1e 3e 9b 50 43 3d 00 07 0e 3c 4a c5 e5 bd
       0.15460375 0.047684293 0.008668661 -0.112192705
0003b0 b5 65 39 bd a8 55 81 3d d8 09 f6 3e 9f 0e 1b bd
       -0.04526301 0.06315166 0.48054385 -0.03785574
0003c0 a7 09 c6 3d 08 88 31 bd e2 ec af 3b 33 ff 9c 3d
       0.0966981 -0.04334262 0.005368815 0.07665863
0003d0 56 de 84 be 8c b3 c5 3d db c9 79 be 64 b0 7a bc
       -0.2595088 0.096533865 -0.24393408 -0.015300844
0003e0 c6 b0 29 3e 2d 06 12 be 69 19 50 3d 4f aa 58 3d
       0.1657134 -0.14260168 0.050805483 0.052896794
0003f0 3d 83 ca bd 85 44 98 bd a0 a0 24 3e 06 70 6f be
       -0.09888313 -0.07434944 0.16076899 -0.23382577

w_a_005 f4 [3, 768]
000000 c6 c5 8f bd df ba 85 3d 6f 9f 38 3d dc dd 56 bc
       -0.07020144 0.065297835 0.045073923 -0.013114419
000010 19 08 fd 3c 60 78 dc bc 0e 9d 16 bd ed 7f 2a 3e
       0.03088765 -0.026912868 -0.036770873 0.16650362
000020 d4 69 b5 bd ac 00 e0 bc b6 33 83 bc d5 d4 5c bb
       -0.08858076 -0.02734407 -0.016015869 -0.0033696194
000030 51 c2 47 bd ba 7d 83 bd 11 a0 8b 3c 92 57 87 3d
       -0.0487693 -0.06420465 0.017044099 0.066084996
000040 42 fa 49 bd a6 36 00 bd b9 f4 e9 3d 47 9d 98 3d
       -0.04931093 -0.031302117 0.1142363 0.07451873
000050 83 3e 7d 3d 25 1d b2 3d 85 0b 3e bd b2 2d 1b 3d
       0.061827194 0.08696965 -0.046397705 0.037885375
000060 fc 9e a5 3d 3d f6 aa 3d df 51 d5 bc 09 d0 1a 3d
       0.080869645 0.083477475 -0.026040016 0.037796054
000070 b5 2f 00 3d 89 ce 1d 3a f5 dc 31 3d 65 77 9b bc
       0.031295497 0.0006019851 0.04342361 -0.01897783
000080 ac 12 14 3d d5 32 0d 3e 4a 85 82 bc ea 5e 22 3d
       0.03615062 0.13788922 -0.015932698 0.0396413
000090 80 9e cc 3b 26 84 9a 3b 3f 6a 55 3d 90 1d 72 3d
       0.0062444806 0.0047154604 0.052103277 0.059110224
0000a0 1e 25 6d 3c d0 dc d3 3c b3 5a 70 bd 74 16 15 3d
       0.014474181 0.025862128 -0.058680248 0.036398366
0000b0 7f 31 48 3c e1 6d 4f bc 6d e2 95 bd f0 7c 8d 3d
       0.012218832 -0.0126604745 -0.07318578 0.069085956
0000c0 5d 22 2d bd 3f af a9 3d 88 85 a2 3d 5a d9 12 bd
       -0.0422691 0.08285379 0.07935625 -0.035851814
0000d0 7c 8c 0d 3d 0e 9a 95 bd a3 f2 90 3d 3a 24 4f bd
       0.034557804 -0.07304774 0.07077529 -0.050571658
0000e0 5e e1 01 bc cc 7a 5b bd 94 9b 8f 3d b8 5a f9 bd
       -0.007927267 -0.053583905 0.07012096 -0.12175506
0000f0 8b 66 62 3c 82 48 df 3c f6 00 3e bd fb 10 9b bc
       0.013818393 0.027256254 -0.046387635 -0.018928995
000100 f7 d2 31 3e 68 49 b5 bd 49 3f 55 bd a0 39 46 3d
       0.17365633 -0.08851892 -0.052062307 0.0483948
000110 46 6a 8b 3d e2 90 16 be a7 fe 90 bd b0 98 ef bd
       0.068073794 -0.14703706 -0.07079821 -0.11699045
000120 c6 97 1f bd fa 01 c7 bc 61 27 ef bd c1 a0 3a ba
       -0.0389631 -0.024292935 -0.11677433 -0.0007119291
000130 54 ad 9f bd 88 8f 7e bd 26 d9 40 3c 3e 47 62 3b
       -0.077967316 -0.0621486 0.011770522 0.0034527327
000140 64 69 39 3d 52 2f c8 bd 0d 46 69 bd 81 89 1c 3d
       0.045266524 -0.09774651 -0.05695157 0.03821707
000150 5f b1 6b bd 5e c8 80 3c 52 ee 9e bc 9e b1 6b bd
       -0.0575422 0.015720543 -0.01940075 -0.057542436
000160 66 cc 1b 3d 4c bf fa 3d 4a 2b d0 bd 99 bc f4 3d
       0.038036726 0.12243518 -0.10164507 0.11950035
000170 86 f0 b8 3c 03 99 8a 3d c7 10 68 3d 3c b8 fa 3d
       0.022575628 0.06767466 0.056656625 0.12242171
000180 bb 82 c0 bb e7 ba 8e 3d 5e 79 29 3b 8d eb 5b 3d
       -0.0058749593 0.069692425 0.0025859694 0.053691436
000190 22 99 a9 3b 6d 34 ae bc 20 e2 a8 bd 04 1b 0d be
       0.0051757256 -0.021265233 -0.08246255 -0.13779837
0001a0 b9 08 b3 3d 5d 3c 1e bd 39 25 48 3d ee 69 cf bc
       0.08741898 -0.038631786 0.048863623 -0.025319066
0001b0 84 e3 01 3e 60 f1 f6 3c 97 74 67 bd 0e 9f 34 3d
       0.12684447 0.030144393 -0.056507673 0.044097
0001c0 49 2a 1a bd 00 f7 35 bd 66 b8 48 bb cf 9a 1e bd
       -0.037637983 -0.04442501 -0.0030627488 -0.038721856
0001d0 a5 5e 35 be c1 c1 f1 3c ca 6e 96 3c ef 78 ab bd
       -0.17711885 0.029511334 0.018363375 -0.083726756
0001e0 f4 17 d8 bd dd 21 dd bc e5 fe 5d bc 9c 45 00 be
       -0.10551444 -0.026993686 -0.013549541 -0.12526554
0001f0 49 ef 74 bc dd 63 8c 3d 82 b9 43 bd f5 00 12 3d
       -0.014949628 0.06854985 -0.047784336 0.035645444
000200 71 10 8d bc 19 28 3c bc fd ac b4 3b e2 16 41 3c
       -0.017219754 -0.011484169 0.005513786 0.011785241
000210 ac 50 98 bc 25 80 ab 3c 2e ba 53 3c ab 3f 9a 3d
       -0.018593155 0.020935128 0.012922807 0.07531675
000220 a1 a8 23 bd 41 85 b7 bd 06 16 b2 bd ba 81 75 bd
       -0.03995574 -0.08960963 -0.08695607 -0.05993817
000230 7e 4b 09 bc 85 f9 09 3d ee 66 8d 3d d5 07 bf bc
       -0.008379815 0.033685226 0.06904398 -0.023319164
000240 75 85 fe bd 7a c2 b6 3d 06 1b 89 ba 2f 6a bb 3b
       -0.12427799 0.08923812 -0.0010460324 0.005719445
000250 78 fd 99 3c 4e 14 5b bd e6 a0 a3 bd 5d 9b 98 3b
       0.018797621 -0.05348616 -0.07989673 0.0046571926
000260 6e 84 af 3d 2b 67 3b bd 0a a1 47 3c 60 c5 f1 3c
       0.08570181 -0.045752686 0.012184391 0.029513061
000270 2f c9 a4 3d 44 c1 b1 bd 9d ca ed bc a1 14 13 bd
       0.08046185 -0.086794406 -0.029027278 -0.035908345
000280 b7 91 0b bd 84 e9 14 3d 21 9b 04 3d eb d5 40 3d
       -0.03407451 0.03635551 0.032374505 0.047079008
000290 1a 3c 56 3e 8f 0b 07 bc a0 fb 43 bd 2e 41 9c 3d
       0.20921364 -0.008242502 -0.04784739 0.076296195
0002a0 7c e9 c4 bb ef c5 a3 bd c5 33 f4 3c ac 10 f3 3c
       -0.006009279 -0.07996737 0.029809842 0.029671036
0002b0 a1 dc d4 bb d9 52 f9 3c 0b ca da bd 5c fe e8 bc
       -0.0064960276 0.030435013 -0.10683068 -0.0284416
0002c0 e5 2d 2d be 82 db 9a 3c af 85 e4 3d 33 4b 30 3c
       -0.16912039 0.018903498 0.111583106 0.010760116
0002d0 6e b1 78 bd 94 cc 47 bd fc 7c 04 bd e2 d9 1b 3d
       -0.060716085 -0.048779085 -0.032345757 0.038049586
0002e0 e2 d1 98 bd b8 9c 65 be 14 a3 55 3c 3b 5c f8 3c
       -0.07461907 -0.22423065 0.013039369 0.030317416
0002f0 a1 88 81 3d ae 82 4e 3d 7f e3 af 3d 71 8e eb bc
       0.06324888 0.050417595 0.08588313 -0.028754445
000300 a9 01 ae bc ab 16 8b bd e9 67 78 3d 89 aa 9e bd
       -0.021241026 -0.06791433 0.06064597 -0.07747371
000310 7e 3d 93 3d dc 55 82 3d 24 9e 26 3d 90 97 c9 3b
       0.07189463 0.063640326 0.04067816 0.006152101
000320 66 d8 8f be bb d1 b7 bc 46 1a 2a bd 64 d6 32 3d
       -0.28094786 -0.022438874 -0.041528963 0.04366149
000330 a9 da fa 3c 24 a0 40 3d f4 0e 86 bd d4 41 00 be
       0.030621843 0.047027722 -0.06545821 -0.12525111
000340 e8 7d 10 3d 6d cd 21 3d 48 61 96 3b 46 91 d4 bd
       0.035276324 0.03950255 0.0045892335 -0.10379271
000350 3b ea 99 bc 0b 54 7e bd 05 53 64 bd 27 55 55 bd
       -0.018788448 -0.06209187 -0.055743236 -0.05208316
000360 32 90 e2 bc 90 46 9c 3d 46 79 53 bd 53 72 8b 3c
       -0.027656648 0.07630646 -0.051629327 0.017022287
000370 1a f7 a0 3a 84 76 a7 bc 03 24 f8 3d 1c d2 ff 3c
       0.0012280673 -0.020442255 0.12116244 0.031228118
000380 4d dc 69 3d b6 72 8f bd 39 f0 5d bc 01 15 83 bc
       0.05709486 -0.07004301 -0.013546043 -0.016001226
000390 7d 56 83 3d 5e ce c8 3d ce d8 31 3d 88 59 63 3d
       0.06412981 0.098049864 0.04341965 0.055505306
0003a0 af 6f f2 bc d4 e3 21 3c 9e 1b fd 3c a0 93 2e 3d
       -0.02959427 0.009880979 0.030896958 0.042621255
0003b0 60 7f 0c bc da be ae 3c ef c1 be 3d a4 5c 9b bd
       -0.00857529 0.02133124 0.09314334 -0.07586029
0003c0 9d 29 db 3c 08 33 11 bb 33 95 2e 3c fa 73 b5 bc
       0.026753241 -0.002215566 0.010655689 -0.022150028
0003d0 c5 b5 f4 bb 85 f8 f0 3c c3 1f de 3d 0e 5f 63 3d
       -0.0074679577 0.029415378 0.10845902 0.055510573
0003e0 ce 91 69 3d 65 c8 9e bc 05 96 6e bc 1f 03 06 be
       0.057023816 -0.019382665 -0.014562135 -0.13087128
0003f0 2a 33 08 bd f2 ff 38 bd a9 c4 cf 3c 1b a4 17 bd
       -0.03325192 -0.045165963 0.02536233 -0.037021738

w_a_006 f4 [3, 768]
000000 20 38 51 3d 75 3b 81 bd 31 4d ec bc 5f b7 96 3d
       0.051078916 -0.06310169 -0.028845401 0.07359194
000010 79 e5 5e 3d b6 c0 5a bd 6a e6 9d 3c 88 86 a1 3d
       0.05441806 -0.05340644 0.019274909 0.07886988
000020 c7 e7 e3 3d 18 d0 30 3e b3 46 b0 bb f5 82 e0 bb
       0.111281924 0.17266881 -0.0053795218 -0.006851549
000030 c5 95 a9 bc f9 be c6 bd b9 33 95 be c8 08 2a 3e
       -0.020701298 -0.09704394 -0.29141024 0.16604912
000040 7e 82 83 be 8e 2c 08 be b3 7e 76 bd 15 52 85 bd
       -0.25685495 -0.13298246 -0.060179424 -0.065097965
000050 2e 28 56 3e 31 7a 0f be d3 8a 29 3d 73 46 35 be
       0.20913765 -0.14011456 0.04139216 -0.17702655
000060 a8 fa cb bd 61 41 15 3d d8 2d 25 3e 2f 4a 31 3e
       -0.09959918 0.036439303 0.16130769 0.17313455
000070 e9 13 1c be 51 97 1f 3e c4 62 3e be 84 55 65 bd
       -0.1524197 0.15585066 -0.18592364 -0.055989757
000080 26 24 e1 bd e2 53 0e 3e 66 c4 0c bd 61 85 0c 3e
       -0.10993223 0.13899186 -0.034366988 0.13722755
000090 26 85 35 3e bf 4b e0 bd ab 34 17 3e 2f 7a e2 bc
       0.17726573 -0.109519474 0.14766185 -0.027646152
0000a0 ad 64 04 bd 08 66 20 3d 20 02 9c 3d 19 ca c2 bd
       -0.032322574 0.039159805 0.07617593 -0.09511203
0000b0 48 d4 23 3e 04 56 84 3d f7 8c b0 3c c8 ce 53 bc
       0.15998948 0.06461719 0.021551592 -0.012927718
0000c0 83 8c 9b bd b2 d0 c3 3e 99 f0 d8 bd 2e f2 1a be
       -0.0759516 0.3824516 -0.10592765 -0.15131447
0000d0 6c 92 f5 bd 43 c8 31 be f9 a1 4a bd 50 a5 ee bd
       -0.119908184 -0.1736155 -0.049470875 -0.116526246
0000e0 3a f8 74 be 8f f8 8d bb 41 07 95 3c 63 4d f4 3c
       -0.23922816 -0.004332609 0.018191935 0.029822057
0000f0 59 d5 80 3e 0d 93 33 3e 75 52 14 be 5a 91 a7 3d
       0.2516277 0.17536564 -0.1448458 0.081820205
000100 4d ba d7 bd 54 fa e3 bd e0 57 25 bc 08 51 85 bc
       -0.10533581 -0.11131731 -0.010091752 -0.01627399
000110 17 19 c4 3c 90 49 b7 bb 2d a9 88 3d 0b 6b fa 3d
       0.023937745 -0.005593486 0.06672893 0.12227448
000120 c2 2a 85 3d 15 72 d3 bc 45 e8 70 3e 85 59 8a bc
       0.06502296 -0.025811234 0.23526104 -0.01688839
000130 d9 cb 76 bd df 7d ee bc e1 b2 03 be 45 ce de bd
       -0.060252998 -0.029112754 -0.12861206 -0.108791865
000140 45 34 88 3e a5 e5 85 be 6c 10 12 be 13 e3 76 3d
       0.26602378 -0.26151767 -0.14264077 0.06027515
000150 ad b6 09 3d e3 f0 21 be b4 7f 26 3c a5 cf 26 bd
       0.03362148 -0.15814547 0.010162283 -0.04072537
000160 82 63 53 be ce 31 9f 3b c1 ae 45 be d0 a6 45 bd
       -0.20643428 0.004858232 -0.19304945 -0.048254788
000170 5d 89 03 be ea a8 7c be 08 4a bd 3d 40 83 3f bd
       -0.12845369 -0.2467381 0.09242636 -0.04675603
000180 37 ae 56 bd 5e e8 46 3e 76 e0 e4 bd d2 c6 69 be
       -0.052412238 0.19424579 -0.11175625 -0.2282975
000190 f0 06 ce 3d 27 92 06 be 72 55 53 3e b1 53 3b bc
       0.10059917 -0.1314169 0.20638064 -0.011433528
0001a0 46 15 b9 3d e9 86 1c bc 59 3a 55 3e f8 3e 36 3e
       0.09037261 -0.009553649 0.20823039 0.17797458
0001b0 4a 29 2f bd 0f 22 3c 3e 70 fd 42 bd cc f9 10 3d
       -0.042763986 0.18372367 -0.047604978 0.035394475
0001c0 9b 37 ab bc 7c 59 a5 3d 99 a1 32 3d 32 ef 0c 3d
       -0.020900538 0.080737084 0.043611143 0.034407802
0001d0 69 46 d3 3d 74 ff 14 be 4d 25 dd bb 77 f4 3f 3e
       0.10316164 -0.14550573 -0.0067488314 0.187456
0001e0 c6 34 f2 bd 65 90 31 bd 22 5a f4 3d c5 fb b7 bc
       -0.11826472 -0.043350596 0.11931254 -0.02245892
0001f0 cd 8a b0 b9 49 5e c9 bd 6e 56 f8 3d 1c 1b 17 bd
       -0.0003367275 -0.098324366 0.1212586 -0.036891088
000200 82 3b 48 3b 0a f9 9c be f4 60 9b 3c 69 9a ec bc
       0.0030553048 -0.30658752 0.01896713 -0.028882222
000210 5c 4d 10 3e 36 11 89 3c 38 16 c1 bd b6 7a 10 be
       0.1409201 0.01673184 -0.09428066 -0.1410931
000220 4b 37 83 3d 47 dd e6 bc 6f fd 4b 3e 76 b2 77 3e
       0.06407031 -0.028181685 0.19920896 0.24189171
000230 2a 5d 15 bd 01 dd ed bd 0d 0b ca 3d 5b 97 25 bd
       -0.0364658 -0.11614419 0.09865389 -0.040427547
000240 8d 86 ca 3a b4 f0 4b 3e 10 f9 eb bc 5b 3c 74 3d
       0.0015451476 0.1991604 -0.028805286 0.059627872
000250 b0 0e 19 be be b8 5e bd 96 70 32 3d 40 33 ad 3d
       -0.14947009 -0.054375403 0.0435644 0.08457041
000260 83 aa b1 3d a9 8c 8e be 85 f8 86 3e 1c 35 6f 3a
       0.08675101 -0.2784169 0.2636148 0.00091250404
000270 03 34 0f be b4 d8 c7 3d 7a 3a db bd 3d 2b 3d 3e
       -0.13984685 0.0975813 -0.10704513 0.18473525
000280 d4 a2 c2 3d 49 25 4c bd d9 1e 9b 3c ec 31 d2 bd
       0.09503713 -0.049840245 0.018935608 -0.10263428
000290 de 1c 0b 3e 2b e5 2b bd 33 00 ef bb 84 2d d5 bc
       0.1358523 -0.0419666 -0.007293725 -0.02602268
0002a0 ca 4f f3 3c 26 b6 9e be c5 fc 13 be 87 bf a0 bd
       0.029701132 -0.30998343 -0.14451893 -0.07849031
0002b0 61 62 25 bd c0 30 fe bc f2 61 ae bd f8 97 aa 3d
       -0.040377025 -0.031029105 -0.08514775 0.08329767
0002c0 d9 65 98 3d 4d 7c 25 be 74 ad a7 3d e9 7f a8 bd
       0.07441301 -0.16160698 0.081873804 -0.08227522
0002d0 d1 de 9a 3c 16 08 11 be 91 01 94 bd 9f 39 21 bd
       0.018905075 -0.14163241 -0.07226861 -0.039361592
0002e0 06 bd 36 3e e6 c8 28 be a1 2c bf bb a1 da dd 3d
       0.17845544 -0.16482887 -0.0058341776 0.10832716
0002f0 3b 5b 2a 3e 3c bf ec 3d 71 4c 19 3d c2 dd b9 3e
       0.16636364 0.115599126 0.037426416 0.36302
000300 cf 0c e1 3c d6 8e 61 3d d1 8c d4 3d dd ea cb bd
       0.027471928 0.05506786 0.10378421 -0.09956906
000310 d6 52 e7 be 38 f0 bc bc 20 0c a0 bd 2a 6e 92 3d
       -0.45180386 -0.023063764 -0.07814813 0.071499184
000320 ad 39 a1 3d 07 da 86 3e bd a3 d1 bd bf aa b9 3c
       0.07872329 0.26338217 -0.10236309 0.022664426
000330 33 43 b2 bd 48 df 9b 3e 71 9d 3c bd 26 52 99 3b
       -0.087042235 0.30443788 -0.046048585 0.0046789823
000340 12 01 13 bd e0 e5 d1 3d 3f 5c 33 3e 1f 51 80 3d
       -0.035889693 0.10248923 0.17515658 0.062654726
000350 2f ce b9 bb 31 f9 80 bd bc 83 b9 b9 e4 c4 8a 3b
       -0.005670331 -0.062975295 -0.000353841 0.004234897
000360 1a 22 43 bd 56 7b ac 3d 01 35 38 3d e6 e0 f2 bc
       -0.047639944 0.08421962 0.044972423 -0.029648256
000370 77 06 06 3e 5f 18 1f be b4 9f 8b 3c 94 ac 2e be
       0.13088404 -0.1553664 0.017043926 -0.17058021
000380 1d 39 e4 bd 25 5a a3 bd 5c 05 a6 bd 62 a5 a6 bd
       -0.11143706 -0.07976178 -0.08106491 -0.08137013
000390 e9 c3 14 3d 0c f5 68 3d b4 7b 33 3e 38 c7 81 bd
       0.036319647 0.05687432 0.17527658 -0.06336826
0003a0 cb 14 89 3e 8f 19 44 be 31 31 51 be a6 66 ef bc
       0.26773676 -0.19150375 -0.20428921 -0.029223751
0003b0 bc 3f 1f 3b 16 be 41 3d d6 c8 91 bd b8 91 02 be
       0.0024299463 0.04730042 -0.071183845 -0.127509
0003c0 7c ab cd bd 39 92 07 be 07 66 0f 3e a1 be 16 bd
       -0.10042474 -0.13239373 0.14003764 -0.03680289
0003d0 71 f9 bc 3d 57 8c f2 3c 4a 26 7a 3e 8b ec 54 3e
       0.09227265 0.029607935 0.24428669 0.20793359
0003e0 b6 d0 f0 bd d8 da ad 3c 51 bb 6a bd 32 23 f2 bc
       -0.117585585 0.021222517 -0.057307545 -0.029557798
0003f0 43 9a ba 3c 55 a1 5c ba a7 df c6 3d fb 02 92 3e
       0.022778636 -0.00084163743 0.09710627 0.285179
